…
cution":{"iopub.status.busy":"2024-05-07T17:48:20.142733Z","iopub.execute_input":"2024-05-07T17:48:20.143225Z","iopub.status.idle":"2024-05-07T17:48:20.516803Z","shell.execute_reply.started":"2024-05-07T17:48:20.143180Z","shell.execute_reply":"2024-05-07T17:48:20.515675Z"},"trusted":true},"execution_count":13,"outputs":[{"name":"stdout","text":"Model: \"sequential\"\n_________________________________________________________________\nLayer (type)                 Output Shape              Param #   \n=================================================================\nconv2d (Conv2D)              (None, 222, 222, 32)      896       \n_________________________________________________________________\nbatch_normalization (BatchNo (None, 222, 222, 32)      128       \n_________________________________________________________________\nconv2d_1 (Conv2D)            (None, 222, 222, 64)      18496     \n_________________________________________________________________\nbatch_normalization_1 (Batch (None, 222, 222, 64)      256       \n_________________________________________________________________\nmax_pooling2d (MaxPooling2D) (None, 111, 111, 64)      0         \n_________________________________________________________________\ndropout (Dropout)            (None, 111, 111, 64)      0         \n_________________________________________________________________\nconv2d_2 (Conv2D)            (None, 109, 109, 64)      36928     \n_________________________________________________________________\nbatch_normalization_2 (Batch (None, 109, 109, 64)      256       \n_________________________________________________________________\nconv2d_3 (Conv2D)            (None, 109, 109, 128)     73856     \n_________________________________________________________________\nbatch_normalization_3 (Batch (None, 109, 109, 128)     512       \n_________________________________________________________________\nmax_pooling2d_1 (MaxPooling2 (None, 55, 55, 128)       0         \n_________________________________________________________________\ndropout_1 (Dropout)          (None, 55, 55, 128)       0         \n_________________________________________________________________\nconv2d_4 (Conv2D)            (None, 53, 53, 128)       147584    \n_________________________________________________________________\nbatch_normalization_4 (Batch (None, 53, 53, 128)       512       \n_________________________________________________________________\nconv2d_5 (Conv2D)            (None, 53, 53, 256)       295168    \n_________________________________________________________________\nbatch_normalization_5 (Batch (None, 53, 53, 256)       1024      \n_________________________________________________________________\nmax_pooling2d_2 (MaxPooling2 (None, 27, 27, 256)       0         \n_________________________________________________________________\ndropout_2 (Dropout)          (None, 27, 27, 256)       0         \n_________________________________________________________________\nflatten (Flatten)            (None, 186624)            0         \n_________________________________________________________________\ndense (Dense)                (None, 1024)              191104000 \n_________________________________________________________________\nbatch_normalization_6 (Batch (None, 1024)              4096      \n_________________________________________________________________\ndropout_3 (Dropout)          (None, 1024)              0         \n_________________________________________________________________\ndense_1 (Dense)              (None, 512)               524800    \n_________________________________________________________________\nbatch_normalization_7 (Batch (None, 512)               2048      \n_________________________________________________________________\ndropout_4 (Dropout)          (None, 512)               0         \n_________________________________________________________________\ndense_2 (Dense)              (None, 256)               131328    \n_________________________________________________________________\nbatch_normalization_8 (Batch (None, 256)               1024      \n_________________________________________________________________\ndropout_5 (Dropout)          (None, 256)               0         \n_________________________________________________________________\ndense_3 (Dense)              (None, 128)               32896     \n_________________________________________________________________\nbatch_normalization_9 (Batch (None, 128)               512       \n_________________________________________________________________\ndropout_6 (Dropout)          (None, 128)               0         \n_________________________________________________________________\ndense_4 (Dense)              (None, 64)                8256      \n_________________________________________________________________\nbatch_normalization_10 (Batc (None, 64)                256       \n_________________________________________________________________\ndropout_7 (Dropout)          (None, 64)                0         \n_________________________________________________________________\ndense_5 (Dense)              (None, 32)                2080      \n_________________________________________________________________\nbatch_normalization_11 (Batc (None, 32)                128       \n_________________________________________________________________\ndropout_8 (Dropout)          (None, 32)                0         \n_________________________________________________________________\ndense_6 (Dense)              (None, 4)                 132       \n=================================================================\nTotal params: 192,387,172\nTrainable params: 192,381,796\nNon-trainable params: 5,376\n_________________________________________________________________\n","output_type":"stream"}]},{"cell_type":"markdown","source":"**Specifying Callbacks**","metadata":{"id":"JfPOc4Reg4ia"}},{"cell_type":"code","source":"# Create Callback 
…
